Model tflite/Expenditure Pattern Classification Feature.tflite (tflite, 68424 bytes, 18 tensors)

sequential_20/dense_20/BiasAdd/ReadVariableOp f4 [3]
00000000: ba65 2bbc cce6 503a 76bd 9d3b
-0.010461265 0.0007968962 0.0048138453

sequential_20/bidirectional_41/forward_lstm_41/Read_2/ReadVariableOp f4 [128]
00000000: 4fa4 113e aad4 d33d 711b b53d 6e5d 963d
00000010: fb3d b63d 984c f63d cc67 ba3d 733c 503d
00000020: f0e8 003d bfd5 ff3d e8be 0f3d 360d d83c
00000030: 3398 1b3e ba0e 3c3d 809e 803d 460c c33d
00000040: c3f3 0b3d 7004 ae3d 5cf9 043e 4a70 083e
00000050: e972 1f3e fdf1 c33d e528 173d 0189 893d
00000060: 391f 1b3d 29c7 223e 6b16 f83d b1e2 d03c
00000070: 5909 d03d 3361 8a3d 2b02 9c3d d301 8e3d
00000080: c5e0 8c3f 4f71 833f 2fe9 833f fc12 833f
00000090: 2358 863f 7baf 8c3f e81b 813f 976a 803f
000000a0: 9ca5 813f 2f7b 873f c355 813f 51dd 803f
000000b0: b1c9 913f 91ff 803f c238 823f 02b5 823f
000000c0: 256d 803f 6e81 873f 762d 8c3f 9be0 863f
000000d0: 4b8e 8a3f ba3d 813f 6b1c 823f 5c27 833f
000000e0: a106 833f 1d4a 893f 5057 843f c6a4 803f
000000f0: a0d7 7c3f 1997 823f b02d 813f d31f 853f
00000100: 4e26 2db9 9e37 b53b 2ac3 173c 9da2 91bb
00000110: 17fa cbbb 1723 053c 0df8 10bd c044 19bd
00000120: 9bbe cc3a 5bf8 cebb 0be0 aebc 27df f93b
00000130: 9cea efbb 1376 99bc 7fc5 4abc 2dea 70bc
00000140: 093a 29bd ab59 7b3b 975f 49bc c319 8fbb
00000150: 196f 393c e2f6 bb3d d5fc 2f3c 8676 3c3d
00000160: bacd 953c 3e40 92bc 7fbc 46bc 3054 e63c
00000170: ab2a 90b8 8908 d0bc 312e 8ebd fb87 8ebd
00000180: 5996 083e 980b f93d 11cc d43d fc8b a73d
00000190: f3d4 be3d 99b5 fe3d 3c15 af3d d338 753d
000001a0: 06c7 2d3d 69a0 153e fe65 203d f6de 0d3d
000001b0: 51f8 1c3e 72b6 133d 1de2 753d 832c ad3d
000001c0: 5026 203c 30a9 bd3d 3d89 0e3e 00f8 133e
000001d0: 3f91 293e c228 8e3d d5b7 093d 58c0 b23d
000001e0: ef69 403d a61d 2c3e 9431 023e 4183 ee3c
000001f0: 5264 ce3d 40fd 953d b7a3 8d3d 13d3 533d
0.14222835 0.10343297 0.08843125 0.07342039 0.088985406 0.12026328 0.09101829 0.0508389
0.031472147 0.12491941 0.03509417 0.026373487 0.15194778 0.04591248 0.062802315 0.09523825
0.034168016 0.0849694 0.12985748 0.13324085 0.15571178 0.0956764 0.036904234 0.067155845
0.037871573 0.15896286 0.12113651 0.02549872 0.10158033 0.067568205 0.07617601 0.06933942
1.1006094 1.0268954 1.0305537 1.0240169 1.0495647 1.0991052 1.0086641 1.0032529
1.0128665 1.0584468 1.0104297 1.006754 1.1389676 1.0077993 1.0173571 1.0211489
1.0033308 1.0586374 1.0951374 1.0537294 1.0824674 1.0096962 1.0164922 1.0246387
1.0236398 1.0725743 1.0339146 1.0050285 0.9876652 1.0202361 1.0092068 1.0400337
-0.00016512835 0.0055303117 0.009262839 -0.004444434 -0.0062248814 0.008126042 -0.03539281 -0.03741908
0.001562077 -0.0063162274 -0.021347066 0.007625479 -0.007321669 -0.01873306 -0.012376188 -0.014704269
-0.041315112 0.0038353007 -0.012290857 -0.0043670847 0.011317992 0.091779485 0.010741432 0.04601147
0.018286575 -0.017852899 -0.012129902 0.028116316 -6.8744026e-05 -0.025394695 -0.06942404 -0.0695953
0.13338603 0.121604145 0.10390485 0.08180997 0.093179606 0.12436981 0.08548972 0.059868645
0.04242613 0.14611973 0.039159767 0.03463646 0.153291 0.036062665 0.06003009 0.084557556
0.009774759 0.092607856 0.1391954 0.14450073 0.16559313 0.06941368 0.03362258 0.08728093
0.046976026 0.16808185 0.12714225 0.029115321 0.10077728 0.07323694 0.06915992 0.051714968

sequential_20/bidirectional_41/backward_lstm_41/Read_2/ReadVariableOp f4 [128]
00000000: 23dc ec3d 267e ac3d da1d bd3d 80bd f43d
00000010: a2d1 223e 9013 a03c b87e 5d3d de74 403d
00000020: 557c 2b3e 56de aa3d 3462 dd3d 4f33 c43d
00000030: c1a5 043e 5ac4 223e 70da 393e 75e5 0c3e
00000040: a59a c13d 38ad a43d 4a4a ed3d 64cc 1d3e
00000050: 1677 353e 88a7 273e 65a5 053e 60cc fe3d
00000060: e1ac 873d ac7c ae3d c0ae d93d 39a8 963d
00000070: 8c2e 923d 4436 b63d a745 593d 8917 a53d
00000080: bf8c 863f b2da 853f e01e 853f f946 8a3f
00000090: 08fd 943f 7db8 793f fe76 813f 603f 823f
000000a0: 4d2c 933f 036c 823f 2b04 8b3f 31bb 873f
000000b0: 6ee5 8c3f e179 8b3f c458 983f bcca 8d3f
000000c0: 2e91 883f c751 8a3f a24d 8e3f b641 963f
000000d0: 3293 913f 483b 8b3f 08d7 8e3f 786d 8e3f
000000e0: 66dd 7a3f 21a5 873f a0f9 8a3f 95ee 843f
000000f0: 4383 843f b628 833f dd3e 853f ff95 823f
00000100: ba04 1f3d 4f62 cdb9 ad91 8c3d 5670 a33c
00000110: 4f2f 33bc 008b fd3c eb20 f03b 430f adbb
00000120: cae5 dc3c 5bb1 c03c 14a7 52bb b4f6 8a3b
00000130: 6b38 89ba 37a4 e23b fec6 ef3b 4f7c e53c
00000140: 313f 93bb 4544 9a3b 3a41 f83b 65b9 3abc
00000150: 4a91 b9bc 8fa6 66bc 42b4 0cbb 3638 8b3b
00000160: 87e8 0dbd 4a9b 31bc f676 503b ecbb e7bb
00000170: ab90 1b3c 5112 473c 15d9 23bb 1bc4 9cbc
00000180: ce05 f63d 5fa1 b23d 7c49 c03d e026 0e3e
00000190: e3a5 393e 8019 933c 7e88 6d3d ed7a 633d
000001a0: 8db4 253e 389b 903d 0a0a 033e b87c d43d
000001b0: 0168 0a3e 11f4 2c3e c8ed 443e 1649 193e
000001c0: d796 ba3d 3be1 c93d 1a33 d93d c5cb 1d3e
000001d0: c515 413e 89c5 2c3e 0a94 053e 8882 f63d
000001e0: 508f 9a3d 4ee0 b93d 67dc dc3d ad4a 9d3d
000001f0: 15b0 b43d a830 dc3d 1b77 853d 37f2 d73d
0.11565425 0.084224984 0.09234209 0.11950207 0.15900281 0.019540578 0.054075927 0.046986453
0.16746648 0.083431885 0.108097464 0.09580099 0.12953855 0.15895215 0.18149734 0.13759406
0.09453324 0.08040851 0.11586435 0.1541 0.17721209 0.16372502 0.13051374 0.12441325
0.06624771 0.08519873 0.10629034 0.07356305 0.07137784 0.08897069 0.05304494 0.080611296
1.0511702 1.0457366 1.0400047 1.0802909 1.1639719 0.9754713 1.0114439 1.017559
1.1497895 1.0189213 1.0860647 1.0604001 1.1007516 1.089657 1.1902089 1.1077495
1.0669305 1.0806206 1.1117442 1.1738803 1.1373045 1.0877466 1.1159372 1.1127157
0.9799408 1.0597268 1.085743 1.038531 1.0352558 1.0246799 1.0409809 1.0202025
0.038822867 -0.00039173893 0.06863723 0.019951027 -0.010936572 0.03095007 0.007328143 -0.0052813604
0.02696504 0.02352207 -0.0032143043 0.004240835 -0.0010469084 0.0069165486 0.007317423 0.028013377
-0.004493617 0.0047078454 0.007576135 -0.011396741 -0.022652287 -0.014077797 -0.0021469747 0.004248644
-0.034645583 -0.010840246 0.0031809187 -0.0070719626 0.009494941 0.012150363 -0.0025001217 -0.01913648
0.12012826 0.08722185 0.09389016 0.13882017 0.18129687 0.017956495 0.057991497 0.055537153
0.16182156 0.070608556 0.12796798 0.10375351 0.13516237 0.16889979 0.19231331 0.14969286
0.09110802 0.098574124 0.1060545 0.15409763 0.1885596 0.16872229 0.13044754 0.120366156
0.07546866 0.09075986 0.10784226 0.07680259 0.088226475 0.10751468 0.06516858 0.10544246

sequential_20/bidirectional_40/forward_lstm_40/Read_2/ReadVariableOp f4 [128]
00000000: 0078 c93d 1907 083d eabd 2a3e 4a83 0c3d
00000010: 2893 a73c f6db bd3c e678 f7bb 3799 b13c
00000020: f23f 5e3c dc6b cb3c 716e 05bc 5647 7d3a
00000030: 90db 53ba 1464 413d 35fc c2bb 6135 81bc
00000040: a19e 243a f7f1 473d 361b ef3d efd3 e53c
00000050: 5055 2b3d 613e c43c 7e1d 11bc 0935 173e
00000060: ab8e 443b 8c27 2a3d 8ad1 873c a527 a53c
00000070: e00b 103d cdda 2c3e 8288 133c 50e8 a33c
00000080: 65e2 803f 17ad 843f 5d61 813f 081d 803f
00000090: 55d8 843f 0631 803f d820 803f 441d 7a3f
000000a0: 5fde 813f 05d5 703f d08a 853f b405 803f
000000b0: 1c13 803f 2402 753f 9a6c 823f 1fff 843f
000000c0: cccc 7f3f 1792 853f a404 813f 9d07 803f
000000d0: 6b17 803f 6c70 7f3f 3b27 803f f71b 7c3f
000000e0: 9e43 803f 4cdd 7f3f 56ba 853f 3ff9 813f
000000f0: d42b 753f 5492 813f a79d 853f d1fe 7f3f
00000100: 3acc 08bd 8e85 2a3d c3f3 443d 0d07 36bd
00000110: 3ba2 303d 92ad 26bd 2401 cfbc 5d98 cb3c
00000120: 53d9 053d 7405 a0bc 67e0 4abd 184f 1a3d
00000130: 9055 9abd c69a b53d b3c8 f13c f1f1 73bc
00000140: 30ee 383d e6bf 233d 4477 4dbd 4911 35bd
00000150: 371a 3cbd d585 9fbc 565f 0ebd ff36 9c3c
00000160: 26ad a5bc 2205 53bd 0069 323d 4827 133d
00000170: e5cc 503c 0885 453d 75a5 24bd 99f8 16bd
00000180: c9c2 d73c 915d 063d e2d7 293d f593 0f3d
00000190: 754d 303d e64a 1d3d 3d2d fcbb 3a31 47bc
000001a0: e1cd ba3c 5d78 26bd 08cf 0b3d 5159 9ebb
000001b0: 2a31 a53a 110c 25bd c823 553b 65b3 103d
000001c0: 6bd0 bbbb db1e 393d ae70 323d 0580 213d
000001d0: 041a 133d eb93 093d 0aa2 e1bb 36fa 22bc
000001e0: 582e 80ba 8132 263d 6051 403d ef63 9f3c
000001f0: 7313 05bd b0d3 053d 298d 313d 43a8 a73c
0.09837341 0.033209894 0.16674009 0.034304895 0.020455912 0.023176175 -0.007552254 0.021679504
0.01356505 0.024831705 -0.008144007 0.0009661814 -0.00080817286 0.047214583 -0.0059504756 -0.015772523
0.0006279741 0.04881474 0.11675112 0.02805516 0.041829407 0.023955526 -0.008857129 0.14766325
0.0029992263 0.04154162 0.016579408 0.020160506 0.035167575 0.16880341 0.009004714 0.020008236
1.006909 1.0365323 1.0107838 1.000886 1.0378519 1.0014961 1.0010023 0.97700906
1.0145987 0.9407504 1.0432987 1.000174 1.0005832 0.9570639 1.0189393 1.0390357
0.9992187 1.0435208 1.0079541 1.0002323 1.0007147 0.9978092 1.0011972 0.9848017
1.0020635 0.9994705 1.044749 1.0154189 0.9577 1.0122781 1.0438737 0.99998194
-0.03339789 0.041631274 0.04808403 -0.044440318 0.043123465 -0.040692873 -0.025269099 0.024852926
0.03267796 -0.01953385 -0.049530413 0.037673086 -0.07535851 0.08867411 0.029514646 -0.014889226
0.04514903 0.03997793 -0.05016257 -0.044205938 -0.045923438 -0.019472996 -0.03475889 0.019069193
-0.020224165 -0.051518567 0.043557167 0.035926133 0.012744163 0.04822257 -0.040196855 -0.036858175
0.026337998 0.032804076 0.041465648 0.035053212 0.04304262 0.038401507 -0.0076958225 -0.012157733
0.022803249 -0.04064213 0.034132987 -0.0048324247 0.0012603153 -0.04029471 0.0032522548 0.035327334
-0.0057316325 0.04519544 0.04356449 0.03942873 0.035913482 0.03358833 -0.0068857716 -0.00994735
-0.0009779437 0.040575508 0.046952605 0.019456832 -0.03248925 0.032672584 0.04334751 0.020465976

sequential_20/bidirectional_40/backward_lstm_40/Read_2/ReadVariableOp f4 [128]
00000000: 7676 263b 24d2 a43c ef9d 983c cd65 843b
00000010: 34ac 2d3d a464 373d d35a ca3c 2735 13bd
00000020: a948 0b3d 9b47 053d 201e 243d 3eaa d33c
00000030: a072 903c f821 f03c 905a 64bb 5d74 af3c
00000040: 9d17 083d 5309 223d 3ba1 d63c 6bad e43c
00000050: d79c d6bb d8f5 d1bc 6fbc 7cbb a5c0 11bc
00000060: 4d63 1b3d b90e 723c 9cf3 163d 58c7 153d
00000070: 31ba 2e3d 6dca 55bc 8cd8 a93c 07f1 6d3c
00000080: 3f40 833f e3d2 7f3f b91e 803f eef6 7f3f
00000090: a51e 803f 3509 793f 4682 7a3f 3986 7a3f
000000a0: 5dd4 7b3f 7e36 803f 0490 6b3f bd95 813f
000000b0: 6b23 803f d34e 833f 5042 823f e596 7d3f
000000c0: 1cda 803f 4dc8 753f efc1 783f 32d0 7b3f
000000d0: 3a2d 803f f752 823f f450 7c3f f2e7 733f
000000e0: e694 853f 5890 7f3f 68f7 7f3f 1516 683f
000000f0: 1279 813f b6a7 853f 9d9e 7a3f 9a30 7d3f
00000100: 5981 d03c 326b 2d3c 5823 3d3d 4166 173d
00000110: 40d0 44bd 78e8 4ebd d0a6 de3c cc0e 51bd
00000120: 737e 0a3c 5f9d 3fbd 32c8 53bd 950c d83c
00000130: 8de0 3abd 02a9 d1bc 8e95 833b 0efa 0e3c
00000140: 5a2c 3f3d a378 083d fca9 e6bc 0f26 40bd
00000150: 1d92 683c 37ff 333d 428c 913c eaee 46bd
00000160: 42e4 2dbd 4a93 a03c 7628 333d 62fa 5b3d
00000170: 9980 0fbd ab02 2fbd 1849 42bd 8198 373d
00000180: 0e0c d13c 92ea d33c ccb5 843c 5f4b 953c
00000190: a53f 3a3d 5b6f c2bc d235 27bc e352 88bd
000001a0: 3efa 05bd e53e 0c3d 865a 28bb a122 f13c
000001b0: 8b73 d23c 200b f73c cd4b 493c 8d70 2bbc
000001c0: 1b3a 313d 80d3 1fbe 3508 aebc 6524 2cbc
000001d0: 0bc7 d5bb 403c 6b3c cbb7 95bc 0ef3 3dbd
000001e0: 0b10 353d a9c5 343c 3947 2e3d ddbc b53c
000001f0: 8da5 6b3c 14b5 343d 12c3 98bc 66ab e3bb
0.0025400198 0.020119734 0.018629996 0.004040456 0.042400554 0.044773713 0.024701511 -0.035939362
0.03400484 0.03253899 0.040067792 0.025838014 0.017632782 0.029313073 -0.0034844019 0.021417791
0.033225644 0.039559674 0.026199928 0.027914723 -0.0065494585 -0.025629923 -0.0038564464 -0.008896028
0.037936497 0.014774018 0.036853418 0.036567062 0.042658035 -0.01304875 0.02073314 0.014522797
1.0253981 0.9993116 1.0009376 0.9998616 1.0009352 0.97279674 0.9785503 0.9786106
0.98370916 1.001663 0.92016625 1.0123821 1.0010809 1.025843 1.0176487 0.9905837
1.0066562 0.9600876 0.9717092 0.98364556 1.0013802 1.0181569 0.98561025 0.95275795
1.0436065 0.99829626 0.99986887 0.90658695 1.0115073 1.0441806 0.97898275 0.98902285
0.025452303 0.010584639 0.046176285 0.03696275 -0.048050165 -0.05051467 0.027179152 -0.051039502
0.008452999 -0.04678094 -0.051704593 0.026373187 -0.045624305 -0.025593285 0.004015631 0.00872661
0.046673156 0.033318173 -0.028157227 -0.046911296 0.014194992 0.043944564 0.017767075 -0.04856769
-0.04245401 0.019601483 0.04373976 0.05370558 -0.03503475 -0.042727154 -0.04743299 0.044823173
0.025518443 0.025868688 0.016199969 0.018224416 0.045470852 -0.023734739 -0.010205703 -0.066564344
-0.032709353 0.03423967 -0.0025688722 0.029435458 0.02568986 0.030156672 0.012286139 -0.010463846
0.043268304 -0.15608025 -0.021244148 -0.010506724 -0.006523972 0.014357626 -0.018276116 -0.046374373
0.044204753 0.011033454 0.042548392 0.022184784 0.014382732 0.044118002 -0.018647704 -0.0069479225

sequential_20/dense_20/MatMul f4 [3, 64]
00000000: 6f20 b7be a25a a5be 43cf 573e 0f27 debd
00000010: b44c 1f3d 3a4b d5be 4e14 7a3d 430a 6b3e
00000020: 9c9f 04be 9ba8 b33e 90ef c33c 5cfc 423e
00000030: 7e66 c9be fa3a 063e 4e78 b1be 3c37 b23e
00000040: 3ad5 9cbe 7698 e5bd d9b6 7bbe b2d5 f93d
00000050: f8a9 a9be c432 97bd 4725 a23e 9ed0 9bbe
00000060: 516e 23be 87f7 abbe db25 4b3e 22f4 e53d
00000070: bac4 88be 5f93 1ebd 6937 8bbe 8e02 10be
00000080: d199 a5be fddc 143e 2bd3 7abe 8780 88be
00000090: d90d 49bc fc24 473e 086d 103e 097d 86bd
000000a0: c3bc 7dbe 026e 1dbe 98d3 4cbd cc14 f9bc
000000b0: 43cb f53d 9a66 a13e 7888 c13e 093f 8bbe
000000c0: e24e 07bd e43c 26bd 9af6 9dbe da2b eb3e
000000d0: 7629 e23e c4ba f13e b995 c4be 46a9 33be
000000e0: 6cd8 8a3d 5895 c93e 4bc8 b7be 213f e63d
000000f0: 1fe0 8dbe a010 4bbc 5e28 2dbd 9fd2 1b3e
00000100: 9e0d ce3b df5d 653e b676 2e3e b995 203d
00000110: 0872 18be 6933 4a3e fa7f 37be 9ccc 65bc
00000120: bf91 483e f258 9cbd da80 30bd 8132 31be
00000130: caf2 13be c597 60be 98fd 213e 10cc 8f3d
00000140: 5909 483e f2bd 793e 98ce 0abe 7fce 86be
00000150: 1022 1fbb da3f 063e 7855 0b3e 1c50 00bd
00000160: da1b 00be 0078 dd3c f4e2 23be 47ed 923e
00000170: 88d7 033d 4c01 39be 081a 13be cd65 27be
00000180: 09c6 013d ca45 b13e bd06 76bd 1dd0 8dbc
00000190: 60fe e23d 781a 89be b756 d03c 16b9 593e
000001a0: ab7e 753e a5a7 f53c 6da9 013e ced9 923c
000001b0: 73c0 103e 3caf 813e 66ed 283e 27e8 953e
000001c0: 6b5f 4dbe 355f 54be f175 923e 2460 86be
000001d0: 4d18 09be 3317 67be c5eb bfbe 337a 523d
000001e0: ecb4 323c b9c9 5ebd 7497 a7bd 7150 83be
000001f0: da28 a3be 830a 0e3e 168e 8b3e 33ca 87bd
00000200: b8d2 b43e 2aa0 1b3e a267 90be 7dab b43e
00000210: 87ef b13e 5eee d2bd ff3d 56be 0c9b a1be
00000220: 0be1 3cbe efa4 b3bd 04db 30be 83e4 0c3e
00000230: 0efa c53e 81c0 87bd 337f ce3d f64b 6cbd
00000240: e196 a93d 2719 83be aa45 663e af73 bdbe
00000250: d29e 0a3e db24 e83d 21b0 8bbe f03b 86bd
00000260: 61e5 803e 3f58 833e e152 dfbe eb01 043d
00000270: 8bb7 c43e 1fef 8fbe b89a 6cbe d5de 84be
00000280: 61c9 42bc 505e bcbd 2a35 2fbe 9a24 d33c
00000290: 3bd8 973e 64d8 4abd 6515 9a3e 01d0 4ebe
000002a0: 2863 2a3d 4047 e5bd ac56 d1be 238c a13e
000002b0: 288c 9ebe 5081 b9be 9bb8 f4be bf4b 863d
000002c0: 7d7d 2b3e be65 653e 554c 7cbc 8e3e 5d3d
000002d0: 4500 86be 7332 803d 0625 493e 74fb 673e
000002e0: c67f 3cbe 03cb 853e 745d 833d 120f 3ebd
000002f0: 3f85 38bd a3da 373e 83f8 54be f358 b0be
-0.35766932 -0.3229571 0.21075158 -0.108472936 0.03889151 -0.41658956 0.06105452 0.22953133
-0.12951511 0.35089573 0.023917943 0.1904158 -0.39336008 0.13108435 -0.34662098 0.34807765
-0.3063143 -0.1121072 -0.2458147 0.12198962 -0.33137488 -0.0738273 0.31669065 -0.304326
-0.15960051 -0.33587286 0.1983866 0.11228205 -0.2671259 -0.038714763 -0.27190712 -0.14063475
-0.32343915 0.14537425 -0.24494617 -0.2666056 -0.012271368 0.19447702 0.14104092 -0.06566817
-0.24779038 -0.15373996 -0.05000648 -0.030405425 0.1200166 0.3152359 0.3779943 -0.2719653
-0.033034213 -0.040585414 -0.30852205 0.45931894 0.44172257 0.47212803 -0.3839548 -0.17545041
0.067795604 0.39371753 -0.35895 0.1124251 -0.27710053 -0.0123941 -0.042274825 0.15217064
0.0062882444 0.2239909 0.17037472 0.039205287 -0.1488725 0.19746174 -0.17919913 -0.014025833
0.19586848 -0.076341525 -0.043091632 -0.17304422 -0.14448085 -0.21932895 0.15819395 0.07021344
0.19534816 0.24388865 -0.13555372 -0.2632942 -0.0024281777 0.13110295 0.13606822 -0.0313264
-0.12510625 0.02703476 -0.16004544 0.28696653 0.03218797 -0.18066901 -0.14365399 -0.16347428
0.031683 0.34623557 -0.06006502 -0.01731115 0.110836744 -0.26778007 0.025431974 0.21262011
0.23974101 0.029987166 0.12662287 0.017926123 0.14135914 0.25329006 0.1649681 0.2927868
-0.2005593 -0.20739444 0.28605607 -0.26245224 -0.13388176 -0.22567444 -0.37484565 0.05138607
0.010907393 -0.054391596 -0.08183184 -0.2564731 -0.31867105 0.13871197 0.2725684 -0.06630363
0.35317016 0.15197816 -0.28204066 0.35287085 0.34753057 -0.10299371 -0.20922087 -0.31563604
-0.18445222 -0.08771693 -0.17271048 0.13759045 0.3866734 -0.06628514 0.10082855 -0.05768963
0.08280731 -0.25605127 0.22487512 -0.37002322 0.13537148 0.113351546 -0.27282813 -0.06554401
0.25175002 0.25653264 -0.4361792 0.03222839 0.38421282 -0.28112122 -0.23105896 -0.25951257
-0.011888833 -0.09197676 -0.17110124 0.025774289 0.29657158 -0.049522772 0.30094448 -0.20196535
0.04159847 -0.111952305 -0.40886438 0.31552228 -0.30966306 -0.3623147 -0.47797093 0.06557416
0.16747089 0.22402093 -0.015399058 0.054014735 -0.2617208 0.062596224 0.1964303 0.22654516
-0.18408117 0.26131448 0.06414309 -0.04640109 -0.04504895 0.17954497 -0.20797925 -0.34442863

sequential_20/bidirectional_40/backward_lstm_40/Read_2/ReadVariableOp1 f4 [128]
00000000: 7676 263b 24d2 a43c ef9d 983c cd65 843b
00000010: 34ac 2d3d a464 373d d35a ca3c 2735 13bd
00000020: a948 0b3d 9b47 053d 201e 243d 3eaa d33c
00000030: a072 903c f821 f03c 905a 64bb 5d74 af3c
00000040: 9d17 083d 5309 223d 3ba1 d63c 6bad e43c
00000050: d79c d6bb d8f5 d1bc 6fbc 7cbb a5c0 11bc
00000060: 4d63 1b3d b90e 723c 9cf3 163d 58c7 153d
00000070: 31ba 2e3d 6dca 55bc 8cd8 a93c 07f1 6d3c
00000080: 3f40 833f e3d2 7f3f b91e 803f eef6 7f3f
00000090: a51e 803f 3509 793f 4682 7a3f 3986 7a3f
000000a0: 5dd4 7b3f 7e36 803f 0490 6b3f bd95 813f
000000b0: 6b23 803f d34e 833f 5042 823f e596 7d3f
000000c0: 1cda 803f 4dc8 753f efc1 783f 32d0 7b3f
000000d0: 3a2d 803f f752 823f f450 7c3f f2e7 733f
000000e0: e694 853f 5890 7f3f 68f7 7f3f 1516 683f
000000f0: 1279 813f b6a7 853f 9d9e 7a3f 9a30 7d3f
00000100: 5981 d03c 326b 2d3c 5823 3d3d 4166 173d
00000110: 40d0 44bd 78e8 4ebd d0a6 de3c cc0e 51bd
00000120: 737e 0a3c 5f9d 3fbd 32c8 53bd 950c d83c
00000130: 8de0 3abd 02a9 d1bc 8e95 833b 0efa 0e3c
00000140: 5a2c 3f3d a378 083d fca9 e6bc 0f26 40bd
00000150: 1d92 683c 37ff 333d 428c 913c eaee 46bd
00000160: 42e4 2dbd 4a93 a03c 7628 333d 62fa 5b3d
00000170: 9980 0fbd ab02 2fbd 1849 42bd 8198 373d
00000180: 0e0c d13c 92ea d33c ccb5 843c 5f4b 953c
00000190: a53f 3a3d 5b6f c2bc d235 27bc e352 88bd
000001a0: 3efa 05bd e53e 0c3d 865a 28bb a122 f13c
000001b0: 8b73 d23c 200b f73c cd4b 493c 8d70 2bbc
000001c0: 1b3a 313d 80d3 1fbe 3508 aebc 6524 2cbc
000001d0: 0bc7 d5bb 403c 6b3c cbb7 95bc 0ef3 3dbd
000001e0: 0b10 353d a9c5 343c 3947 2e3d ddbc b53c
000001f0: 8da5 6b3c 14b5 343d 12c3 98bc 66ab e3bb
0.0025400198 0.020119734 0.018629996 0.004040456 0.042400554 0.044773713 0.024701511 -0.035939362
0.03400484 0.03253899 0.040067792 0.025838014 0.017632782 0.029313073 -0.0034844019 0.021417791
0.033225644 0.039559674 0.026199928 0.027914723 -0.0065494585 -0.025629923 -0.0038564464 -0.008896028
0.037936497 0.014774018 0.036853418 0.036567062 0.042658035 -0.01304875 0.02073314 0.014522797
1.0253981 0.9993116 1.0009376 0.9998616 1.0009352 0.97279674 0.9785503 0.9786106
0.98370916 1.001663 0.92016625 1.0123821 1.0010809 1.025843 1.0176487 0.9905837
1.0066562 0.9600876 0.9717092 0.98364556 1.0013802 1.0181569 0.98561025 0.95275795
1.0436065 0.99829626 0.99986887 0.90658695 1.0115073 1.0441806 0.97898275 0.98902285
0.025452303 0.010584639 0.046176285 0.03696275 -0.048050165 -0.05051467 0.027179152 -0.051039502
0.008452999 -0.04678094 -0.051704593 0.026373187 -0.045624305 -0.025593285 0.004015631 0.00872661
0.046673156 0.033318173 -0.028157227 -0.046911296 0.014194992 0.043944564 0.017767075 -0.04856769
-0.04245401 0.019601483 0.04373976 0.05370558 -0.03503475 -0.042727154 -0.04743299 0.044823173
0.025518443 0.025868688 0.016199969 0.018224416 0.045470852 -0.023734739 -0.010205703 -0.066564344
-0.032709353 0.03423967 -0.0025688722 0.029435458 0.02568986 0.030156672 0.012286139 -0.010463846
0.043268304 -0.15608025 -0.021244148 -0.010506724 -0.006523972 0.014357626 -0.018276116 -0.046374373
0.044204753 0.011033454 0.042548392 0.022184784 0.014382732 0.044118002 -0.018647704 -0.0069479225

while/MatMul f4 [128, 1]
00000000: ff1f 0e3d bbfe aebd 9c6d 3dbe 5fb3 35bd
00000010: b1e3 9abd a89c 45bd 499a bcbd c327 03be
00000020: 29fe c8bb 2ef9 3bbd 6709 9ebd c357 163e
00000030: af6f b9bd c1df 083e 7a2c 0dbe 2c3c 513e
00000040: 6424 56be c0d7 183e 9005 3f3d ff56 79bd
00000050: f2b4 3cbd 885a 3fbe 38ef 1a3e 8734 493e
00000060: f67b b23d bf19 11bd e8b0 21be 20d7 a0bd
00000070: 2832 04be 4a2d 043d 62a9 29be 5c3d 91bd
00000080: 307a 3f3d ae71 efbd b91f 06be 96f4 09be
00000090: 0119 4abe ed6e b53d 382f 3f3e 8159 133e
000000a0: 1766 9bbd aef7 01be a7dd 01ba 55ef 333c
000000b0: b995 07be 7a80 623e 5f4d 1c3d d097 163e
000000c0: 571f 3abc 5bd4 f6bc 9f6b 093e 5fd5 403e
000000d0: f492 dfbd 83ee b93d d485 a93c 7bf6 33be
000000e0: cc50 d83c 6aba 82bd bd34 92bd 49d9 a5bb
000000f0: 1ba8 813d 91ec d7bc 5a07 193e 1c46 4c3e
00000100: fa89 2d3d d649 8dbd b355 563e 5371 ffbd
00000110: 6363 78bc b18c 17bd 72eb e0bc a434 3abe
00000120: fe18 1ebe 2ee9 93bd 1f53 66be 4441 f53c
00000130: f1a7 e4bd d297 02be 608c cabc 6cf6 e6bc
00000140: 9475 0bbe 083e c9bc 497a 0c3e a8e1 4cbe
00000150: 72fa 413e 0993 15be 102e d9bd e7dd f03d
00000160: 929d 9bbd 3e6e 53be 3ea6 75bd 9250 983d
00000170: 2baf 133e 23fc 45be e0fa a9bd 2305 5b3e
00000180: dc79 bebd eac1 0c3e 035b c9bd 8832 233d
00000190: cfd3 033e 99da bbbc be02 e3bd 441e b7b8
000001a0: b4cb adbd 9d78 86bd 5f86 2f3e 5fe9 303e
000001b0: ab84 653e 538e 233e 7566 803d b5b6 3abe
000001c0: 543c 053e 1a56 9f38 d655 573d 1a7e bc3d
000001d0: 082d 34be 7047 babd 1dda 11be 3a5d c03d
000001e0: dd25 a4bd 0140 26be b13b 1d3e 218d 543e
000001f0: 59c6 10bd 73a1 a7bd 012b fc3d 035c 003d
0.034698483 -0.0854468 -0.18498844 -0.044360515 -0.0756296 -0.048245102 -0.09209115 -0.12808137
-0.006133814 -0.045891933 -0.07716637 0.14681916 -0.09054505 0.13366605 -0.13786498 0.2043311
-0.2091232 0.14926052 0.046636164 -0.06087398 -0.046071 -0.18686879 0.15130317 0.19648944
0.0871505 -0.035424944 -0.1579014 -0.07853532 -0.12909758 0.032269754 -0.1656852 -0.070917815
0.046747386 -0.116916046 -0.13098039 -0.13472208 -0.197361 0.08859048 0.18670356 0.14389612
-0.075878315 -0.12692139 -0.0004953988 0.010982354 -0.13240708 0.22119322 0.038159724 0.1470635
-0.011360011 -0.030130556 0.1341996 0.18831395 -0.10916701 0.090786956 0.020693697 -0.17574494
0.026405714 -0.06383212 -0.07138965 -0.005061303 0.06330892 -0.02635792 0.1494421 0.1994862
0.042367913 -0.06898849 0.20931129 -0.12472787 -0.015160414 -0.03699941 -0.02745602 -0.18184143
-0.15439221 -0.0722221 -0.22492646 0.029938348 -0.11164845 -0.12753227 -0.02472514 -0.028193675
-0.13619071 -0.024565712 0.13718523 -0.20007956 0.18943194 -0.1460687 -0.10604489 0.117610745
-0.075984135 -0.20647523 -0.059972994 0.074372426 0.1442229 -0.19334464 -0.08299804 0.21388678
-0.093005866 0.13745847 -0.09831812 0.039843112 0.12873767 -0.022931384 -0.110845074 -8.7317574e-05
-0.08486119 -0.06565974 0.17141102 0.17276524 0.2241389 0.15972261 0.06269542 -0.1823376
0.13011295 7.5977485e-05 0.052572094 0.092037395 -0.17595303 -0.09095657 -0.1424336 0.093927816
-0.08015034 -0.16235353 0.15354802 0.20756961 -0.03534541 -0.08185091 0.1231289 0.03133775

while/MatMul_11 i1 [128, 32] scale=0.002510845 zero_point=0
00000000: ca10 0611 f50d f2fe 2c2b ff0b 101a f746
00000010: c3f5 1cc2 35e2 1dc4 dfed e7f5 2916 402d
00000020: 10c0 f20a 0612 d020 d6d7 051e 1309 e81e
00000030: 63e0 0ee2 a504 1502 9d17 f2e3 1ce2 10f1
00000040: 3c0c ee02 0322 edfd ebf9 312f ded3 fed8
00000050: 113e 1e24 21d0 d82e 046a 29e1 11d1 0f19
00000060: ff26 f7db 23f4 1606 c407 ddfe 2ed1 fbc2
00000070: 241a 17ea e215 4bfb eafd 1f63 fd3a 14e1
00000080: c428 3203 e5f1 050f 1901 de6b 14cb 09fe
00000090: b0d0 da40 ea3f 11e8 0111 1cee 0fd7 1ed3
000000a0: dc30 f20d 08fc dc31 f914 df12 12e2 42e0
000000b0: 0729 04f3 a9a3 d7eb fdf7 1500 f00b 0bd4
000000c0: c01a dde2 ff3f 080f eb05 0515 0010 2a07
000000d0: 28f3 1519 0203 2110 f733 f4fb 4d54 fdd9
000000e0: 1ae1 e0e6 b21c 26df d8f6 cd28 e8fb f307
000000f0: 0637 c2cb 11d8 0dda 23f4 fb01 ef29 2510
-0.13558562 0.04017352 0.01506507 0.042684365 -0.027619295 0.032640986 -0.035151828 -0.00502169
0.11047718 0.10796633 -0.002510845 0.027619295 0.04017352 0.06528197 -0.022597605 0.17575915
-0.15316154 -0.027619295 0.070303656 -0.15567239 0.13307479 -0.07532535 0.0728145 -0.1506507
-0.082857884 -0.047706053 -0.06277113 -0.027619295 0.10294464 0.05523859 0.16069408 0.112988025
0.04017352 -0.16069408 -0.035151828 0.02510845 0.01506507 0.04519521 -0.12052056 0.08034704
-0.10545549 -0.10294464 0.012554225 0.07532535 0.047706053 0.022597605 -0.06026028 0.07532535
0.24857365 -0.08034704 0.035151828 -0.07532535 -0.2284869 0.01004338 0.052727744 0.00502169
-0.24857365 0.057749435 -0.035151828 -0.0728145 0.070303656 -0.07532535 0.04017352 -0.037662674
0.1506507 0.03013014 -0.04519521 0.00502169 0.007532535 0.08536873 -0.047706053 -0.007532535
-0.052727744 -0.017575914 0.1230314 0.118009716 -0.08536873 -0.112988025 -0.00502169 -0.1004338
0.042684365 0.15567239 0.07532535 0.09039042 0.082857884 -0.12052056 -0.1004338 0.11549887
0.01004338 0.26614958 0.10294464 -0.07783619 0.042684365 -0.118009716 0.037662674 0.06277113
-0.002510845 0.095412105 -0.022597605 -0.09290127 0.087879576 -0.03013014 0.05523859 0.01506507
-0.1506507 0.017575914 -0.087879576 -0.00502169 0.11549887 -0.118009716 -0.012554225 -0.15567239
0.09039042 0.06528197 0.057749435 -0.05523859 -0.07532535 0.052727744 0.18831336 -0.012554225
-0.05523859 -0.007532535 0.07783619 0.24857365 -0.007532535 0.145629 0.0502169 -0.07783619
-0.1506507 0.1004338 0.12554225 0.007532535 -0.06779281 -0.037662674 0.012554225 0.037662674
0.06277113 0.002510845 -0.08536873 0.2686604 0.0502169 -0.13307479 0.022597605 -0.00502169
-0.2008676 -0.12052056 -0.095412105 0.16069408 -0.05523859 0.15818323 0.042684365 -0.06026028
0.002510845 0.042684365 0.070303656 -0.04519521 0.037662674 -0.10294464 0.07532535 -0.112988025
-0.09039042 0.12052056 -0.035151828 0.032640986 0.02008676 -0.01004338 -0.09039042 0.1230314
-0.017575914 0.0502169 -0.082857884 0.04519521 0.04519521 -0.07532535 0.16571577 -0.08034704
0.017575914 0.10294464 0.01004338 -0.032640986 -0.21844351 -0.23350859 -0.10294464 -0.052727744
-0.007532535 -0.022597605 0.052727744 0.0 -0.04017352 0.027619295 0.027619295 -0.11047718
-0.16069408 0.06528197 -0.087879576 -0.07532535 -0.002510845 0.15818323 0.02008676 0.037662674
-0.052727744 0.012554225 0.012554225 0.052727744 0.0 0.04017352 0.10545549 0.017575914
0.1004338 -0.032640986 0.052727744 0.06277113 0.00502169 0.007532535 0.082857884 0.04017352
-0.022597605 0.1280531 -0.03013014 -0.012554225 0.19333506 0.21091098 -0.007532535 -0.09792295
0.06528197 -0.07783619 -0.08034704 -0.06528197 -0.1958459 0.070303656 0.095412105 -0.082857884
-0.1004338 -0.02510845 -0.1280531 0.1004338 -0.06026028 -0.012554225 -0.032640986 0.017575914
0.01506507 0.13809647 -0.15567239 -0.13307479 0.042684365 -0.1004338 0.032640986 -0.095412105
0.087879576 -0.03013014 -0.012554225 0.002510845 -0.042684365 0.10294464 0.09290127 0.04017352

sequential_20/bidirectional_40/forward_lstm_40/Read_2/ReadVariableOp1 f4 [128]
00000000: 0078 c93d 1907 083d eabd 2a3e 4a83 0c3d
00000010: 2893 a73c f6db bd3c e678 f7bb 3799 b13c
00000020: f23f 5e3c dc6b cb3c 716e 05bc 5647 7d3a
00000030: 90db 53ba 1464 413d 35fc c2bb 6135 81bc
00000040: a19e 243a f7f1 473d 361b ef3d efd3 e53c
00000050: 5055 2b3d 613e c43c 7e1d 11bc 0935 173e
00000060: ab8e 443b 8c27 2a3d 8ad1 873c a527 a53c
00000070: e00b 103d cdda 2c3e 8288 133c 50e8 a33c
00000080: 65e2 803f 17ad 843f 5d61 813f 081d 803f
00000090: 55d8 843f 0631 803f d820 803f 441d 7a3f
000000a0: 5fde 813f 05d5 703f d08a 853f b405 803f
000000b0: 1c13 803f 2402 753f 9a6c 823f 1fff 843f
000000c0: cccc 7f3f 1792 853f a404 813f 9d07 803f
000000d0: 6b17 803f 6c70 7f3f 3b27 803f f71b 7c3f
000000e0: 9e43 803f 4cdd 7f3f 56ba 853f 3ff9 813f
000000f0: d42b 753f 5492 813f a79d 853f d1fe 7f3f
00000100: 3acc 08bd 8e85 2a3d c3f3 443d 0d07 36bd
00000110: 3ba2 303d 92ad 26bd 2401 cfbc 5d98 cb3c
00000120: 53d9 053d 7405 a0bc 67e0 4abd 184f 1a3d
00000130: 9055 9abd c69a b53d b3c8 f13c f1f1 73bc
00000140: 30ee 383d e6bf 233d 4477 4dbd 4911 35bd
00000150: 371a 3cbd d585 9fbc 565f 0ebd ff36 9c3c
00000160: 26ad a5bc 2205 53bd 0069 323d 4827 133d
00000170: e5cc 503c 0885 453d 75a5 24bd 99f8 16bd
00000180: c9c2 d73c 915d 063d e2d7 293d f593 0f3d
00000190: 754d 303d e64a 1d3d 3d2d fcbb 3a31 47bc
000001a0: e1cd ba3c 5d78 26bd 08cf 0b3d 5159 9ebb
000001b0: 2a31 a53a 110c 25bd c823 553b 65b3 103d
000001c0: 6bd0 bbbb db1e 393d ae70 323d 0580 213d
000001d0: 041a 133d eb93 093d 0aa2 e1bb 36fa 22bc
000001e0: 582e 80ba 8132 263d 6051 403d ef63 9f3c
000001f0: 7313 05bd b0d3 053d 298d 313d 43a8 a73c
0.09837341 0.033209894 0.16674009 0.034304895 0.020455912 0.023176175 -0.007552254 0.021679504
0.01356505 0.024831705 -0.008144007 0.0009661814 -0.00080817286 0.047214583 -0.0059504756 -0.015772523
0.0006279741 0.04881474 0.11675112 0.02805516 0.041829407 0.023955526 -0.008857129 0.14766325
0.0029992263 0.04154162 0.016579408 0.020160506 0.035167575 0.16880341 0.009004714 0.020008236
1.006909 1.0365323 1.0107838 1.000886 1.0378519 1.0014961 1.0010023 0.97700906
1.0145987 0.9407504 1.0432987 1.000174 1.0005832 0.9570639 1.0189393 1.0390357
0.9992187 1.0435208 1.0079541 1.0002323 1.0007147 0.9978092 1.0011972 0.9848017
1.0020635 0.9994705 1.044749 1.0154189 0.9577 1.0122781 1.0438737 0.99998194
-0.03339789 0.041631274 0.04808403 -0.044440318 0.043123465 -0.040692873 -0.025269099 0.024852926
0.03267796 -0.01953385 -0.049530413 0.037673086 -0.07535851 0.08867411 0.029514646 -0.014889226
0.04514903 0.03997793 -0.05016257 -0.044205938 -0.045923438 -0.019472996 -0.03475889 0.019069193
-0.020224165 -0.051518567 0.043557167 0.035926133 0.012744163 0.04822257 -0.040196855 -0.036858175
0.026337998 0.032804076 0.041465648 0.035053212 0.04304262 0.038401507 -0.0076958225 -0.012157733
0.022803249 -0.04064213 0.034132987 -0.0048324247 0.0012603153 -0.04029471 0.0032522548 0.035327334
-0.0057316325 0.04519544 0.04356449 0.03942873 0.035913482 0.03358833 -0.0068857716 -0.00994735
-0.0009779437 0.040575508 0.046952605 0.019456832 -0.03248925 0.032672584 0.04334751 0.020465976

while/MatMul2 f4 [128, 1]
00000000: 5145 91b8 057e 553e dbad adb8 d976 ccbd
00000010: 41d0 a23d f313 83bc 3f54 c5bd ff75 393d
00000020: 974a de3d d71e 5d3d c5ed a73c 1de7 e4bd
00000030: 6360 1fbe cb52 443e dd8b 223e 5e75 cd3c
00000040: f322 c0bd 37db 533e bec2 34b7 a3d3 0ebe
00000050: c02c 4dbe 3f00 bcbc c431 98bd 15c3 a737
00000060: aaf9 3abd c446 2dbe f34f 663d 1a95 cd3d
00000070: fc5b 4b3e 0461 15b7 b483 c13c 7785 54be
00000080: d779 ad3d c341 913d 98bc 103d 4859 ce3d
00000090: 62a7 c53d 3084 323e f68f 213d 58be 36be
000000a0: 3763 26be 051f 37bd 6608 223e f597 2bbd
000000b0: b3c9 37be d364 d2bc 12b1 38be 1e0a 06bd
000000c0: 903f 3abe c91e 3dbe 1015 40be 1c2f 5bbd
000000d0: f93b 2c3d b9b0 87bc 3d97 43be d91a f53d
000000e0: e440 ac3d 2f13 58be 80d7 ad3c 9afb 183e
000000f0: 5038 55be 1370 443e d4a1 bc3d 1b1f 24be
00000100: 15ef 58be cdc0 bc3d ef48 073e bfe9 1bbe
00000110: 706f 353d a148 41bd d317 05be cc97 10bd
00000120: a647 dc3d f7fa eb3d 9479 53bd ac6a ca3d
00000130: 92be e9b7 ffad 2fb8 1ee4 0bbe 4b1b febd
00000140: cf84 0abe 0387 4c3d a851 46be 16ef 503e
00000150: 5aef 3bbe 5c3b 213e 5a4a 09bd 391a 99bd
00000160: 3069 20be aeaa 193e 82b1 0e3e d03d 3b3e
00000170: 579e 3ebe 4d70 8c3d af1b f6bd 0952 d83c
00000180: 1683 493e c9c9 443d 2fee 293e 2094 21be
00000190: 2498 563e 5008 f53d dd42 7abd cbd2 64bc
000001a0: 9699 2a3e f054 063e 5080 e83c 2997 37bd
000001b0: 4eb6 97bd 534d 69bc bed1 9fbd 028f e0bd
000001c0: 7c92 563e 0044 48be 5111 de3d 2552 423e
000001d0: 6cfa 2bbd 2a35 f53d ba81 f1bd 46a9 4cbe
000001e0: 3704 123e b437 45be 7350 09be 1900 02be
000001f0: e29f 2e3d 74f2 9a3d 97fc 13bd 97ce 51bd
-6.92705e-05 0.20848854 -8.281666e-05 -0.09983606 0.079498775 -0.016000723 -0.09635209 0.045278545
0.10854071 0.05398449 0.02049912 -0.11176894 -0.15564112 0.19172208 0.15873666 0.02508038
-0.09381666 0.20689093 -1.0774178e-05 -0.1394792 -0.20036602 -0.022949336 -0.07431367 1.9998794e-05
-0.045648254 -0.16921526 0.05622859 0.100382045 0.19859308 -8.90368e-06 0.023622371 -0.20754038
0.08470505 0.07092621 0.035336107 0.10075623 0.09651066 0.17433238 0.039443932 -0.17846048
-0.16248785 -0.044707317 0.15823516 -0.041892964 -0.17948036 -0.025682842 -0.18036297 -0.032724492
-0.1818831 -0.18468775 -0.18758035 -0.053511724 0.042049382 -0.01656376 -0.19100662 0.119680114
0.084108144 -0.21101068 0.021220922 0.14939728 -0.20822263 0.19183378 0.09210554 -0.16027491
-0.21184953 0.09216461 0.13211416 -0.15225886 0.04429573 -0.047188405 -0.1299737 -0.035301015
0.10755853 0.11522477 -0.051629618 0.09883627 -2.7864506e-05 -4.1885298e-05 -0.13661239 -0.124075495
-0.13527225 0.049933445 -0.19367087 0.20403704 -0.18353024 0.157453 -0.033518173 -0.07475705
-0.15665126 0.15006515 0.13934901 0.18285298 -0.1861509 0.06857357 -0.12016999 0.026406305
0.19678912 0.048044 0.16594766 -0.15779161 0.20956475 0.11964476 -0.061098922 -0.013966273
0.16660151 0.13118339 0.028381497 -0.044821892 -0.07407819 -0.014239627 -0.07803677 -0.109647766
0.20954317 -0.1955719 0.108431466 0.18976648 -0.041986868 0.11973031 -0.117923215 -0.19986448
0.1425942 -0.1925953 -0.13409595 -0.1269535 0.042632945 0.075657755 -0.03612956 -0.05122241

while/MatMul_14 i1 [128, 32] scale=0.0025038787 zero_point=0
00000000: 1619 06b4 6fcb c0e3 1a10 b4f1 17fb 9237
00000010: f516 fff6 f0f4 f62b c3ea 1f4a d2d9 1700
00000020: eb45 fef7 f7f7 d6de 29c1 fe1e 1fc9 0332
00000030: 11ea efdb f1f3 d9cc 0427 cae5 d7c6 dae6
00000040: cb73 4d15 7418 1ec2 6855 a212 e0f9 25c3
00000050: 1805 0903 e23f 04a6 2504 18c1 8101 0cb0
00000060: 11f3 bae2 2506 e113 190d d42c 4ce1 a4fd
00000070: 05f1 04fd df2d 260d 300c 20ee d824 dcff
00000080: 11f2 fabb e1da dd06 24fc c7f4 f312 dd18
00000090: fa2b da32 f837 cefe 2a08 0518 ffbb 02fd
000000a0: f9d1 0001 cf00 39fb 4f38 d40a d8f8 e3d4
000000b0: 0004 fff0 190e e010 00c1 db0e ea00 1306
000000c0: f6ef dabe ed38 de19 d61e e71d 2bc7 d4d4
000000d0: 03fc f403 2621 c321 0b14 d5e2 f2f3 f8ea
000000e0: a44d 2e27 2d22 0cf7 0116 d20e dc04 0311
000000f0: 0720 f8b2 2250 ec15 ec11 c90c 3ad9 f6fe
0.05508533 0.06259697 0.0150232725 -0.19029477 0.27793053 -0.13270557 -0.16024823 -0.07261248
0.06510085 0.04006206 -0.19029477 -0.03755818 0.05758921 -0.012519393 -0.27542666 0.13771333
-0.027542666 0.05508533 -0.0025038787 -0.025038786 -0.04006206 -0.030046545 -0.025038786 0.10766678
-0.1527366 -0.05508533 0.07762024 0.18528703 -0.11517842 -0.097651266 0.05758921 0.0
-0.05258145 0.17276762 -0.0050077573 -0.022534909 -0.022534909 -0.022534909 -0.1051629 -0.085131876
0.102659024 -0.15774436 -0.0050077573 0.07511636 0.07762024 -0.13771333 0.0075116362 0.12519394
0.042565938 -0.05508533 -0.042565938 -0.092643514 -0.03755818 -0.032550424 -0.097651266 -0.1302017
0.010015515 0.097651266 -0.13520944 -0.06760472 -0.102659024 -0.14522496 -0.095147386 -0.06510085
-0.13270557 0.28794605 0.19279866 0.05258145 0.29044992 0.06009309 0.07511636 -0.15524048
0.2604034 0.2128297 -0.2353646 0.045069817 -0.08012412 -0.01752715 0.092643514 -0.1527366
0.06009309 0.012519393 0.022534909 0.0075116362 -0.07511636 0.15774436 0.010015515 -0.22534908
0.092643514 0.010015515 0.06009309 -0.15774436 -0.3179926 0.0025038787 0.030046545 -0.20031029
0.042565938 -0.032550424 -0.17527151 -0.07511636 0.092643514 0.0150232725 -0.07762024 0.047573693
0.06259697 0.032550424 -0.11017066 0.11017066 0.19029477 -0.07762024 -0.23035684 -0.0075116362
0.012519393 -0.03755818 0.010015515 -0.0075116362 -0.082628 0.11267454 0.095147386 0.032550424
0.12018618 0.030046545 0.08012412 -0.045069817 -0.100155145 0.090139635 -0.090139635 -0.0025038787
0.042565938 -0.0350543 -0.0150232725 -0.17276762 -0.07762024 -0.095147386 -0.087635756 0.0150232725
0.090139635 -0.010015515 -0.14272109 -0.030046545 -0.032550424 0.045069817 -0.087635756 0.06009309
-0.0150232725 0.10766678 -0.095147386 0.12519394 -0.02003103 0.13771333 -0.12519394 -0.0050077573
0.1051629 0.02003103 0.012519393 0.06009309 -0.0025038787 -0.17276762 0.0050077573 -0.0075116362
-0.01752715 -0.1176823 0.0 0.0025038787 -0.12269005 0.0 0.14272109 -0.012519393
0.19780642 0.1402172 -0.11017066 0.025038786 -0.100155145 -0.02003103 -0.07261248 -0.11017066
0.0 0.010015515 -0.0025038787 -0.04006206 0.06259697 0.0350543 -0.08012412 0.04006206
0.0 -0.15774436 -0.092643514 0.0350543 -0.05508533 0.0 0.047573693 0.0150232725
-0.025038786 -0.042565938 -0.095147386 -0.165256 -0.047573693 0.1402172 -0.085131876 0.06259697
-0.1051629 0.07511636 -0.06259697 0.07261248 0.10766678 -0.14272109 -0.11017066 -0.11017066
0.0075116362 -0.010015515 -0.030046545 0.0075116362 0.095147386 0.082628 -0.1527366 0.082628
0.027542666 0.050077572 -0.10766678 -0.07511636 -0.0350543 -0.032550424 -0.02003103 -0.05508533
-0.23035684 0.19279866 0.11517842 0.097651266 0.11267454 0.085131876 0.030046545 -0.022534909
0.0025038787 0.05508533 -0.11517842 0.0350543 -0.090139635 0.010015515 0.0075116362 0.042565938
0.01752715 0.08012412 -0.02003103 -0.19530253 0.085131876 0.20031029 -0.050077572 0.05258145
-0.050077572 0.042565938 -0.13771333 0.030046545 0.14522496 -0.097651266 -0.025038786 -0.0050077573

sequential_20/bidirectional_41/backward_lstm_41/Read_2/ReadVariableOp1 f4 [128]
00000000: 23dc ec3d 267e ac3d da1d bd3d 80bd f43d
00000010: a2d1 223e 9013 a03c b87e 5d3d de74 403d
00000020: 557c 2b3e 56de aa3d 3462 dd3d 4f33 c43d
00000030: c1a5 043e 5ac4 223e 70da 393e 75e5 0c3e
00000040: a59a c13d 38ad a43d 4a4a ed3d 64cc 1d3e
00000050: 1677 353e 88a7 273e 65a5 053e 60cc fe3d
00000060: e1ac 873d ac7c ae3d c0ae d93d 39a8 963d
00000070: 8c2e 923d 4436 b63d a745 593d 8917 a53d
00000080: bf8c 863f b2da 853f e01e 853f f946 8a3f
00000090: 08fd 943f 7db8 793f fe76 813f 603f 823f
000000a0: 4d2c 933f 036c 823f 2b04 8b3f 31bb 873f
000000b0: 6ee5 8c3f e179 8b3f c458 983f bcca 8d3f
000000c0: 2e91 883f c751 8a3f a24d 8e3f b641 963f
000000d0: 3293 913f 483b 8b3f 08d7 8e3f 786d 8e3f
000000e0: 66dd 7a3f 21a5 873f a0f9 8a3f 95ee 843f
000000f0: 4383 843f b628 833f dd3e 853f ff95 823f
00000100: ba04 1f3d 4f62 cdb9 ad91 8c3d 5670 a33c
00000110: 4f2f 33bc 008b fd3c eb20 f03b 430f adbb
00000120: cae5 dc3c 5bb1 c03c 14a7 52bb b4f6 8a3b
00000130: 6b38 89ba 37a4 e23b fec6 ef3b 4f7c e53c
00000140: 313f 93bb 4544 9a3b 3a41 f83b 65b9 3abc
00000150: 4a91 b9bc 8fa6 66bc 42b4 0cbb 3638 8b3b
00000160: 87e8 0dbd 4a9b 31bc f676 503b ecbb e7bb
00000170: ab90 1b3c 5112 473c 15d9 23bb 1bc4 9cbc
00000180: ce05 f63d 5fa1 b23d 7c49 c03d e026 0e3e
00000190: e3a5 393e 8019 933c 7e88 6d3d ed7a 633d
000001a0: 8db4 253e 389b 903d 0a0a 033e b87c d43d
000001b0: 0168 0a3e 11f4 2c3e c8ed 443e 1649 193e
000001c0: d796 ba3d 3be1 c93d 1a33 d93d c5cb 1d3e
000001d0: c515 413e 89c5 2c3e 0a94 053e 8882 f63d
000001e0: 508f 9a3d 4ee0 b93d 67dc dc3d ad4a 9d3d
000001f0: 15b0 b43d a830 dc3d 1b77 853d 37f2 d73d
0.11565425 0.084224984 0.09234209 0.11950207 0.15900281 0.019540578 0.054075927 0.046986453
0.16746648 0.083431885 0.108097464 0.09580099 0.12953855 0.15895215 0.18149734 0.13759406
0.09453324 0.08040851 0.11586435 0.1541 0.17721209 0.16372502 0.13051374 0.12441325
0.06624771 0.08519873 0.10629034 0.07356305 0.07137784 0.08897069 0.05304494 0.080611296
1.0511702 1.0457366 1.0400047 1.0802909 1.1639719 0.9754713 1.0114439 1.017559
1.1497895 1.0189213 1.0860647 1.0604001 1.1007516 1.089657 1.1902089 1.1077495
1.0669305 1.0806206 1.1117442 1.1738803 1.1373045 1.0877466 1.1159372 1.1127157
0.9799408 1.0597268 1.085743 1.038531 1.0352558 1.0246799 1.0409809 1.0202025
0.038822867 -0.00039173893 0.06863723 0.019951027 -0.010936572 0.03095007 0.007328143 -0.0052813604
0.02696504 0.02352207 -0.0032143043 0.004240835 -0.0010469084 0.0069165486 0.007317423 0.028013377
-0.004493617 0.0047078454 0.007576135 -0.011396741 -0.022652287 -0.014077797 -0.0021469747 0.004248644
-0.034645583 -0.010840246 0.0031809187 -0.0070719626 0.009494941 0.012150363 -0.0025001217 -0.01913648
0.12012826 0.08722185 0.09389016 0.13882017 0.18129687 0.017956495 0.057991497 0.055537153
0.16182156 0.070608556 0.12796798 0.10375351 0.13516237 0.16889979 0.19231331 0.14969286
0.09110802 0.098574124 0.1060545 0.15409763 0.1885596 0.16872229 0.13044754 0.120366156
0.07546866 0.09075986 0.10784226 0.07680259 0.088226475 0.10751468 0.06516858 0.10544246

while/MatMul_17 i1 [128, 32] scale=0.0034541064 zero_point=0
00000000: be0f 0419 c433 e316 fa62 f0cd 010e 4fc8
00000010: daf5 1400 1315 13e3 e702 e5f4 ef36 61e1
00000020: f72e 180e f612 cddc 160e fcc5 0317 021c
00000030: d7c2 68c8 f5fd 1711 e7e2 c3bc ee2d 3cdd
00000040: 2538 e403 fe4a e1fa fa10 17ca 2418 1eeb
00000050: d9f1 0de7 edf9 bb21 08e3 0b2c e3fa 06d4
00000060: fd3e 613d f937 f8e0 451d 2cd9 c206 dd06
00000070: bfeb 55c7 a3f4 ea1b f5d5 91c6 ca35 17be
00000080: b13a 3462 e233 eec5 d23a 1893 a21b 0cc3
00000090: 04fd 37d8 cc1a 4cdf cacd a6d7 ca50 1eb7
000000a0: d513 41ed f307 e01f cc0d 07ef d50d 1adf
000000b0: 2f22 ee39 3e34 0fd4 2c49 0a2d efe4 f827
000000c0: f512 04d6 ea1f ec0c b117 f6df 2afb e7d0
000000d0: e6f2 11e4 f41c ace0 f314 e5ee b0f4 0706
000000e0: 1923 fcff 3737 b8ee 0709 e9f3 fec9 dc27
000000f0: e8f2 f314 16f6 1eda fe0f eedd fb04 02e8
-0.22797102 0.051811595 0.013816426 0.08635266 -0.20724638 0.17615943 -0.100169085 0.07599034
-0.02072464 0.33850244 -0.055265702 -0.17615943 0.0034541064 0.04835749 0.27287441 -0.19342996
-0.13125604 -0.03799517 0.069082126 0.0 0.06562802 0.07253624 0.06562802 -0.100169085
-0.08635266 0.006908213 -0.09326087 -0.04144928 -0.05871981 0.18652174 0.33504832 -0.1070773
-0.031086957 0.15888889 0.08289856 0.04835749 -0.034541063 0.062173914 -0.17615943 -0.12434783
0.07599034 0.04835749 -0.013816426 -0.20379227 0.01036232 0.079444446 0.006908213 0.09671498
-0.14161836 -0.2141546 0.35922706 -0.19342996 -0.03799517 -0.01036232 0.079444446 0.05871981
-0.08635266 -0.10362319 -0.2107005 -0.23487924 -0.062173914 0.15543479 0.20724638 -0.120893724
0.12780194 0.19342996 -0.09671498 0.01036232 -0.006908213 0.25560388 -0.1070773 -0.02072464
-0.02072464 0.055265702 0.079444446 -0.18652174 0.12434783 0.08289856 0.10362319 -0.07253624
-0.13471015 -0.051811595 0.044903383 -0.08635266 -0.06562802 -0.024178745 -0.23833334 0.11398551
0.027632851 -0.100169085 0.03799517 0.15198068 -0.100169085 -0.02072464 0.02072464 -0.15198068
-0.01036232 0.2141546 0.33504832 0.2107005 -0.024178745 0.18997586 -0.027632851 -0.110531405
0.23833334 0.100169085 0.15198068 -0.13471015 -0.2141546 0.02072464 -0.120893724 0.02072464
-0.22451691 -0.07253624 0.29359904 -0.19688407 -0.3212319 -0.04144928 -0.07599034 0.09326087
-0.03799517 -0.14852658 -0.3834058 -0.20033817 -0.18652174 0.18306763 0.079444446 -0.22797102
-0.27287441 0.20033817 0.17961353 0.33850244 -0.10362319 0.17615943 -0.062173914 -0.20379227
-0.15888889 0.20033817 0.08289856 -0.3764976 -0.324686 0.09326087 0.04144928 -0.2107005
0.013816426 -0.01036232 0.18997586 -0.13816425 -0.17961353 0.089806765 0.2625121 -0.11398551
-0.18652174 -0.17615943 -0.31086957 -0.14161836 -0.18652174 0.2763285 0.10362319 -0.25214976
-0.14852658 0.06562802 0.22451691 -0.06562802 -0.044903383 0.024178745 -0.110531405 0.1070773
-0.17961353 0.044903383 0.024178745 -0.05871981 -0.14852658 0.044903383 0.089806765 -0.11398551
0.162343 0.11743962 -0.062173914 0.19688407 0.2141546 0.17961353 0.051811595 -0.15198068
0.15198068 0.25214976 0.034541063 0.15543479 -0.05871981 -0.09671498 -0.027632851 0.13471015
-0.03799517 0.062173914 0.013816426 -0.14507248 -0.07599034 0.1070773 -0.069082126 0.04144928
-0.27287441 0.079444446 -0.034541063 -0.11398551 0.14507248 -0.017270532 -0.08635266 -0.16579711
-0.089806765 -0.04835749 0.05871981 -0.09671498 -0.04144928 0.09671498 -0.29014495 -0.110531405
-0.044903383 0.069082126 -0.09326087 -0.062173914 -0.2763285 -0.04144928 0.024178745 0.02072464
0.08635266 0.120893724 -0.013816426 -0.0034541064 0.18997586 0.18997586 -0.24869566 -0.062173914
0.024178745 0.031086957 -0.079444446 -0.044903383 -0.006908213 -0.18997586 -0.12434783 0.13471015
-0.08289856 -0.04835749 -0.044903383 0.069082126 0.07599034 -0.034541063 0.10362319 -0.13125604
-0.006908213 0.051811595 -0.062173914 -0.120893724 -0.017270532 0.013816426 0.006908213 -0.08289856

while/MatMul4 i1 [128, 64] scale=0.002910828 zero_point=0
00000000: fb60 4108 170b db0d 6008 ace6 15cc d626
00000010: c805 fbce 1ddb 15ca 1bbd 143b c6f7 17f2
00000020: 0aee e0fd da23 0b1d d22c 3b2f e6d7 22db
00000030: 2fc6 2439 bc30 ec45 014a 2be9 0035 30f1
00000040: 2228 d5f1 3c38 e1d2 294d 1a21 01d5 d211
00000050: 0f21 c8f6 2d26 f317 2808 feca 0cff f2cc
00000060: fdbf cae1 2033 d02d e51b fd1b c8d6 1223
00000070: bcd3 123c 17e3 24f2 d432 2f01 c308 eb2b
00000080: ae10 3d06 3df9 dd00 3df3 f61e 1f4c fcca
00000090: dad6 cad9 0412 1947 de12 3e3c d4ef 29ea
000000a0: f301 1efc e7da 1319 1226 2d09 d8b0 f433
000000b0: e5cb 0f06 d3c8 f423 2807 262b d21e 251c
000000c0: ed0b b32a 4fe7 cccc 1e12 f903 11ca cfd5
000000d0: dac5 13ff d90e 07c9 ebfc 0eed ed4a 15ce
000000e0: e23a 2cdd 0d25 ecd6 2ccf 1a23 1aa2 25d1
000000f0: c2fd 4df4 07e1 26f1 2023 cfed f212 2318
-0.01455414 0.27943948 0.18920381 0.023286624 0.06694905 0.03201911 -0.10770064 0.037840765
0.27943948 0.023286624 -0.24450955 -0.07568153 0.061127387 -0.15136306 -0.122254774 0.11061146
-0.16300637 0.01455414 -0.01455414 -0.1455414 0.08441401 -0.10770064 0.061127387 -0.1571847
0.07859235 -0.19502547 0.05821656 0.17173885 -0.16882803 -0.026197452 0.06694905 -0.04075159
0.02910828 -0.052394904 -0.093146496 -0.008732484 -0.11061146 0.10187898 0.03201911 0.08441401
-0.1338981 0.12807643 0.17173885 0.13680892 -0.07568153 -0.119343944 0.09896815 -0.10770064
0.13680892 -0.16882803 0.10478981 0.16591719 -0.1979363 0.13971974 -0.05821656 0.20084713
0.002910828 0.21540128 0.1251656 -0.06694905 0.0 0.15427388 0.13971974 -0.04366242
0.09896815 0.11643312 -0.1251656 -0.04366242 0.17464969 0.16300637 -0.090235665 -0.1338981
0.119343944 0.22413376 0.07568153 0.096057326 0.002910828 -0.1251656 -0.1338981 0.049484074
0.04366242 0.096057326 -0.16300637 -0.02910828 0.13098726 0.11061146 -0.037840765 0.06694905
0.11643312 0.023286624 -0.005821656 -0.1571847 0.034929935 -0.002910828 -0.04075159 -0.15136306
-0.008732484 -0.18920381 -0.1571847 -0.090235665 0.093146496 0.14845222 -0.13971974 0.13098726
-0.07859235 0.07859235 -0.008732484 0.07859235 -0.16300637 -0.122254774 0.052394904 0.10187898
-0.1979363 -0.13098726 0.052394904 0.17464969 0.06694905 -0.08441401 0.10478981 -0.04075159
-0.12807643 0.1455414 0.13680892 0.002910828 -0.17756051 0.023286624 -0.061127387 0.1251656
-0.23868789 0.046573248 0.17756051 0.017464967 0.17756051 -0.020375796 -0.10187898 0.0
0.17756051 -0.037840765 -0.02910828 0.08732484 0.090235665 0.22122292 -0.011643312 -0.1571847
-0.11061146 -0.122254774 -0.1571847 -0.11352229 0.011643312 0.052394904 0.0727707 0.2066688
-0.09896815 0.052394904 0.18047133 0.17464969 -0.12807643 -0.049484074 0.119343944 -0.06403822
-0.037840765 0.002910828 0.08732484 -0.011643312 -0.0727707 -0.11061146 0.05530573 0.0727707
0.052394904 0.11061146 0.13098726 0.026197452 -0.11643312 -0.23286624 -0.034929935 0.14845222
-0.07859235 -0.15427388 0.04366242 0.017464967 -0.13098726 -0.16300637 -0.034929935 0.10187898
0.11643312 0.020375796 0.11061146 0.1251656 -0.1338981 0.08732484 0.10770064 0.08150318
-0.05530573 0.03201911 -0.22413376 0.122254774 0.2299554 -0.0727707 -0.15136306 -0.15136306
0.08732484 0.052394904 -0.020375796 0.008732484 0.049484074 -0.1571847 -0.14263058 -0.1251656
-0.11061146 -0.17173885 0.05530573 -0.002910828 -0.11352229 0.04075159 0.020375796 -0.16009554
-0.061127387 -0.011643312 0.04075159 -0.05530573 -0.05530573 0.21540128 0.061127387 -0.1455414
-0.08732484 0.16882803 0.12807643 -0.10187898 0.037840765 0.10770064 -0.05821656 -0.122254774
0.12807643 -0.14263058 0.07568153 0.10187898 0.07568153 -0.27361783 0.10770064 -0.13680892
-0.18047133 -0.008732484 0.22413376 -0.034929935 0.020375796 -0.090235665 0.11061146 -0.04366242
0.093146496 0.10187898 -0.14263058 -0.05530573 -0.04075159 0.052394904 0.10187898 0.06985987
